operations/model/model.pth (torch, 31951 bytes, 8 tensors)

layers.0.weight f4 [50, 40]
00000000: 9300 77bb 99ae 19bc 1d1f 483d 80fa 9abc
00000010: 864f c0bb b382 3ebd d875 ce3c 5b62 adbb
00000020: 45e8 d63d 4f6b 813d e889 543c b3d8 95bd
00000030: 25e1 b93b 6b53 e6bc c418 10be 6593 36be
00000040: c6c9 0e3e 21d3 bcbd f43f a3bd 6ec1 90bd
00000050: 756d 63bd 8d2b 9ebd 89ad 013e 4762 393e
00000060: 1b16 d2bd cb20 fb3d 2876 fd3c 787a af3c
00000070: 2bd0 463e d293 8b3d c6c3 b93d 721d a0bd
00000080: aae1 4ebc a552 2b3a 78b3 2d3d 0c22 e93c
00000090: f630 adbc 06b1 85bb eeb0 a5bc cc1b 743d
000000a0: 9712 0000 cf09 0080 391e 0000 3505 0080
000000b0: e611 0000 b209 0080 3c21 0000 0c20 0000
000000c0: 4712 0000 2725 0000 8617 0000 c617 0000
000000d0: f218 0080 5514 0000 c408 0000 ce08 0000
000000e0: 3113 0080 8324 0000 f313 0000 2107 0000
000000f0: e018 0000 121a 0000 3f01 0000 5711 0000
00000100: a912 0000 0212 0080 c411 0000 7901 0000
00000110: 8214 0000 6314 0000 4a1b 0080 4014 0080
00000120: c326 0080 d521 0080 8410 0080 290b 0080
00000130: c20d 0000 9524 0000 fd0f 0080 0c17 0080
00000140: 6576 3bbc 04c1 5fbd 22e8 f93d 7b76 90bd
00000150: f8a0 72bc 8403 033d 1927 153d 7c29 e2bc
00000160: e6c2 343e 051c 8a3b b88e 8ebd 2e32 d3bd
00000170: bd83 f2bd ad18 053e 1008 b6bd 24be 54be
00000180: 3ff3 433e f47c 5e3c ed7c 04be b4db 1a3b
00000190: 8965 b13d 5210 423d 1c1a b33c 8ec8 c43d
000001a0: 254b 96bc efd2 ae3d 0d62 8d3d 1a91 9a3d
000001b0: b571 5d3e 364a dc3d 2ef0 d0bc a3ae 9e3d
000001c0: 2563 b93d df0d ce3d cd1e 3e3e 667a 093e
000001d0: f012 023e 01f0 a03d ed5e 833d 2cce c93d
000001e0: db15 0000 5008 0080 bb08 0000 2320 0080
000001f0: 7823 0000 4f0c 0080 a704 0000 ff02 0000
00000200: dd1c 0000 5112 0000 7e22 0000 9a20 0000
00000210: d80d 0000 3d04 0000 4b07 0000 2505 0000
00000220: ac17 0000 e105 0000 1d1e 0000 9f03 0000
00000230: de15 0000 791f 0000 fa00 0080 8516 0080
00000240: 4115 0000 9702 0080 831b 0000 d314 0000
00000250: 211c 0080 640d 0080 100d 0080 b41e 0000
00000260: cd02 0000 8818 0000 2120 0080 6715 0080
00000270: de20 0000 b111 0000 6424 0000 2d07 0080
00000280: fda6 0e3d d523 b13d ce51 10be 1821 17bd
00000290: c5d8 babd e2f4 fcbc f088 5ebd 3b11 9dbd
000002a0: dfdb 09be afd8 afba 5529 fc3d 6551 5d3d
000002b0: 23cb bfbd 034d 4d3d eeb8 e2bd ffb3 153d
000002c0: c8bd 5dbd 2e32 51bc d910 25bd 037b 293d
000002d0: b4b6 a6bc 74c3 be3c db3a 99bd f76f 093d
000002e0: c68a 58b9 31ce 49bc a943 64bd 219a 293c
000002f0: 198d 16bd da53 01bc 0978 213c 1655 653d
00000300: f62e 63bd 4a87 b43c 1c9a 7cbd 9b45 103c
00000310: 7a18 5ebd f1f3 c03d e8b6 d3bc 186d 3439
00000320: ec16 0000 9b1e 0080 7c1f 0000 1411 0000
00000330: 411a 0000 1716 0080 2b1d 0000 d425 0080
00000340: 141e 0000 6613 0000 0d17 0080 0d26 0000
00000350: 0e17 0000 cd1e 0000 1d1f 0080 481e 0000
00000360: 2923 0000 2224 0080 a41f 0080 9b24 0000
00000370: d41d 0080 2f15 0080 4923 0080 bb26 0080
00000380: 2920 0080 2e13 0000 1019 0000 d31c 0080
00000390: 081e 0000 c211 0080 511a 0000 4c14 0000
000003a0: ec25 0000 8c19 0000 c012 0000 bb1e 0000
000003b0: c316 0000 a825 0080 a71c 0000 b71b 0000
000003c0: f11a 52bc 1ef2 c8bd cab4 3c3d d073 72bd
000003d0: d1ec 003e 2aef f4bc 3f06 0a3d 965d db3c
000003e0: e827 b6bd 2127 2abd 9827 72bd 8dc2 433d
000003f0: 00ee b3bc e1d1 27be 1fb8 cb3d 5206 2a3c
-0.0037689551 -0.009380006 0.048857797 -0.018918276 -0.005868855 -0.046511363 0.025202677 -0.005291266
0.10493521 0.063192956 0.012972333 -0.07316723 0.0056725913 -0.028115949 -0.14071947 -0.17829664
0.13944158 -0.09219957 -0.079711825 -0.07068144 -0.05552431 -0.077231504 0.12663855 0.18103896
-0.102581225 0.12262114 0.03094013 0.021420702 0.19415347 0.06815304 0.09070544 -0.07818116
-0.012627045 0.00065354473 0.042407483 0.028458618 -0.02114151 -0.0040799407 -0.020225968 0.05959682
6.669e-42 -3.519e-42 1.0842e-41 -1.868e-42 6.421e-42 -3.478e-42 1.1922e-41 1.1496e-41
6.557e-42 1.3328e-41 8.439e-42 8.528e-42 -8.949e-42 7.294e-42 3.145e-42 3.159e-42
-6.885e-42 1.3098e-41 7.156e-42 2.557e-42 8.923e-42 9.352e-42 4.47e-43 6.22e-42
6.694e-42 -6.46e-42 6.373e-42 5.28e-43 7.357e-42 7.313e-42 -9.79e-42 -7.264e-42
-1.3905e-41 -1.2137e-41 -5.925e-42 -4.004e-42 4.935e-42 1.3123e-41 -5.736e-42 -8.268e-42
-0.011441802 -0.054627433 0.12202479 -0.07053848 -0.014808886 0.031985775 0.03641424 -0.027607672
0.17652473 0.004214766 -0.06960815 -0.103123054 -0.11841533 0.12997694 -0.088882565 -0.20775658
0.1913576 0.013579596 -0.1293828 0.0023629488 0.086619444 0.047378846 0.021863036 0.09608565
-0.018346379 0.08536326 0.06903467 0.07547207 0.21625407 0.10756342 -0.025505152 0.07748153
0.090521134 0.100612395 0.18566437 0.13425598 0.12702537 0.07858277 0.0641459 0.09853777
7.84e-42 -2.982e-42 3.132e-42 -1.1528e-41 1.2724e-41 -4.415e-42 1.669e-42 1.075e-42
1.0354e-41 6.57e-42 1.2373e-41 1.1695e-41 4.966e-42 1.52e-42 2.616e-42 1.846e-42
8.492e-42 2.109e-42 1.0803e-41 1.299e-42 7.844e-42 1.129e-41 -3.5e-43 -8.078e-42
7.624e-42 -9.29e-43 9.87e-42 7.47e-42 -1.0091e-41 -4.804e-42 -4.686e-42 1.1014e-41
1.005e-42 8.8e-42 -1.1526e-41 -7.678e-42 1.179e-41 6.346e-42 1.3054e-41 -2.574e-42
0.03482722 0.086494125 -0.14093706 -0.036896795 -0.09123377 -0.030878488 -0.054329813 -0.07669302
-0.1346278 -0.0013416017 0.12312571 0.054032702 -0.09364917 0.050122272 -0.11070429 0.03654861
-0.054136068 -0.012768311 -0.04029927 0.04137708 -0.020350792 0.023286559 -0.07481929 0.033554044
-0.00020651062 -0.012317226 -0.05572859 0.010351689 -0.036755655 -0.007893527 0.009855279 0.055989347
-0.055464707 0.022037167 -0.061670408 0.008805658 -0.05422256 0.09421528 -0.025844052 0.00017206778
8.223e-42 -1.0979e-41 1.1294e-41 6.126e-42 9.418e-42 -7.924e-42 1.0463e-41 -1.357e-41
1.079e-41 6.959e-42 -8.269e-42 1.365e-41 8.27e-42 1.1049e-41 -1.1161e-41 1.0863e-41
1.2613e-41 -1.2962e-41 -1.135e-41 1.3132e-41 -1.07e-41 -7.599e-42 -1.2658e-41 -1.3894e-41
-1.1537e-41 6.88e-42 8.991e-42 -1.034e-41 1.0773e-41 -6.37e-42 9.44e-42 7.281e-42
1.3604e-41 9.164e-42 6.726e-42 1.1024e-41 8.165e-42 -1.3509e-41 1.0279e-41 9.942e-42
-0.012823806 -0.09811805 0.04607085 -0.05919248 0.12590338 -0.029899199 0.033697363 0.026778024
-0.0889433 -0.041541222 -0.05911979 0.04779296 -0.021964073 -0.16388656 0.09947228 0.010377483

layers.0.bias f4 [50]
00000000: f2ff 283c 2723 0080 cf03 a2bc 5516 0080
00000010: 58c3 afba 6716 0000 c65d d4bb 88f1 25bc
00000020: e1cd 9fbc 0a23 0080 e719 0080 b826 4bbc
00000030: ba97 823c 4575 34bb 2cd7 9e3b a012 babc
00000040: ccfa 493c b524 11bd 1771 003c 6f16 0080
00000050: 8810 0080 8ac5 0fbd 6336 46bc de7e 44bc
00000060: fd43 8c3c 7cee afba abaf d53a 37e2 0f3c
00000070: ff11 0080 22fc 153a b024 0080 bce1 e2bc
00000080: 49e6 4b3b aa83 053d 4bc2 c3bb 4cdd 33bc
00000090: 9409 0080 fd81 f83c 4594 b5bc 9df4 193d
000000a0: 5615 0080 6922 0080 6813 0080 c817 0000
000000b0: 33d4 f8bc 4625 0080 421b 0080 0c31 0fbd
000000c0: 401f 0080 3a27 5a3c
0.010314928 -1.261e-41 -0.019777207 -8.011e-42 -0.0013409657 8.036e-42 -0.006480905 -0.010128386
-0.01950735 -1.257e-41 -9.292e-42 -0.012399368 0.01594149 -0.0027535718 0.004847428 -0.02271396
0.012327861 -0.035435397 0.007839463 -8.048e-42 -5.93e-42 -0.035100497 -0.012097928 -0.011993138
0.017122263 -0.0013422514 0.0016302963 0.008781961 -6.456e-42 0.00057214696 -1.3161e-41 -0.02769553
0.0031112602 0.032596268 -0.0059740893 -0.010978054 -3.436e-42 0.03033542 -0.022165427 0.037586797
-7.654e-42 -1.2344e-41 -6.962e-42 8.531e-42 -0.030374622 -1.3371e-41 -9.778e-42 -0.034958884
-1.121e-41 0.013315016

layers.3.weight f4 [50, 50]
00000000: 5b1f a1bb b318 0080 2ce6 17bd be23 0000
00000010: d9a1 4f3d 9a1f 0000 5834 f43c ee82 313d
00000020: b959 673d 0819 0080 831d 0000 dc50 193d
00000030: bb7c 85bc 2c3f 73bc 825a 20b9 54ea 9e3d
00000040: 87cd 5cbb be6a bf3d bd23 b43d 7000 0080
00000050: fc12 0080 7ce4 ba3d 5fc3 773d 44d8 993c
00000060: 0c91 75bd 4e06 95bc 9f5e 633d 6fec ad3d
00000070: 1919 0080 38c4 8e3c 8112 0000 3fcc 073d
00000080: 9bde 8abc e595 77bc 333c 233d e878 0b3d
00000090: f822 0000 a6a0 75bd e5af 423d 0de5 2bbd
000000a0: 1124 0080 141b 0000 2017 0080 bd23 0080
000000b0: 5e40 b33d cc15 0080 fa19 0000 34af a43d
000000c0: 9f23 0080 0a84 cfbc f99d 133d f30e 0080
000000d0: e28b 9b3d 0512 0080 f301 12bd 6e17 0000
000000e0: d088 94bc 8a20 a0bc 9377 8dbd 9317 0000
000000f0: 2a16 0000 c8f7 cb3a ff8b 733d 5fed 7939
00000100: f0c0 4e3d a4de 5abd 1101 653d 6fa9 27bd
00000110: e534 82bd e61a 0080 451c 0000 9941 09bd
00000120: d90e 16bd dfa3 10bd 8d99 9e3d 26b4 a03d
00000130: 5ff2 e6bc 9f19 80bd 1b24 0000 3735 513d
00000140: 601f 0080 89b3 15bd ed47 323d 6c7b cf3d
00000150: 273c c3bc cf0f d6bc 820e 0080 bc4e 953d
00000160: 7b93 79bc 3969 c13d 3b15 0080 8a18 0000
00000170: 2e19 0000 e817 0080 cc51 0bbd 3422 0000
00000180: 3922 0080 5d36 14bd ad1f 0000 59b2 bd3d
00000190: b4f0 ab3c 481d 0000 538a 7f3d e813 0000
000001a0: 9dfe 1ebc 4217 0000 4f4d debc 4632 90bc
000001b0: 71b0 89bd 5c22 0000 6920 0080 5694 26bc
000001c0: ebab 693d cfc5 52bb c795 3d3d 2f90 7ebd
000001d0: e698 9e3d e444 1abd f18d 1ebd c113 0000
000001e0: dd1b 0080 05e8 02bd 755c 86bc a4f7 b4bb
000001f0: 8794 543d 2567 5c3d 310e 31bd 5218 4abd
00000200: f710 0000 88e9 8a3c aa03 0000 747d 0ebd
00000210: fe6a 923d d4f9 a63d a7f4 c8bc d937 bdbb
00000220: bd12 0080 6c14 833d 3861 45bc 9eba a43d
00000230: f325 0000 2a1a 0000 4826 0080 4215 0080
00000240: 8c49 a3bc 4b23 0000 5718 0080 6ec4 0abd
00000250: 0b0c 0000 5666 a23d 7872 263c 5323 0000
00000260: a5b9 53bd 4316 0000 07c6 023d e11f 0000
00000270: c70d b93c 79de 683d 87d5 c63d 8f15 0080
00000280: 7411 0000 fb1b 8b3c 8e0e 0abd afb1 6cbc
00000290: d0b5 903a 6388 b43d 5f78 3abc 585e bc3d
000002a0: 3034 ba3d be21 0000 1e22 0080 625d c03d
000002b0: f4c2 3f3d 4134 3d3d 885c 8abd 2e32 95bc
000002c0: 1d3e 833d 1be3 583d 6e16 0080 d195 cf3c
000002d0: 611b 0000 b4d3 923d 90c4 87bc 3e54 1ebd
000002e0: d0b0 733c f6d9 533d 2505 0000 010c 9ebd
000002f0: 50ed 9a3d 3e15 2ebd c015 0000 ce24 0000
00000300: 231a 0080 c817 0000 2daf 9e3d 6021 0080
00000310: da1b 0080 ce89 df3d 6525 0080 f818 00bd
00000320: 166f bb3b 0711 0080 4f0c 10bd b404 0080
00000330: 309a 253d 4712 0000 77da de3c d08c c03c
00000340: 31f5 8a3d dc07 0000 031e 0000 c1ef 2a3c
00000350: 6b03 12bd e4d7 33bc 957e aabb 1276 393d
00000360: 9e9f 7dbb bd02 a23d 8c9e 933d 9c15 0080
00000370: 141b 0000 cfa7 a63d f8b0 763d 491e dc3c
00000380: 205a 45bd 8a5d 98bc dad1 a93d 70a2 633d
00000390: 4803 0000 ef75 c43c ea05 0000 d546 c43d
000003a0: 8751 8ebc 24b9 8d3a 3d7e 7f3d 1f77 b13c
000003b0: a60e 0000 a70d 58bd 9e0d 5f3d b421 48bd
000003c0: d819 0000 f425 0000 7718 0000 2722 0000
000003d0: a058 9a3d 9d18 0000 721f 0000 ffe2 3e3d
000003e0: 040a 0080 932b c8bc 881c 5e3d 9707 0000
000003f0: c102 7b3d 4b18 0000 7ec3 76bc c025 0000
-0.004917068 -8.86e-42 -0.037084743 1.2822e-41 0.05069146 1.1337e-41 0.029810116 0.043337755
0.05648205 -8.98e-42 1.0587e-41 0.03743063 -0.016294828 -0.014846604 -0.00015292506 0.07759538
-0.003369184 0.09346531 0.08795879 -1.57e-43 -6.81e-42 0.09125611 0.060489055 0.018779881
-0.05995278 -0.018191483 0.05551016 0.08492362 -9.003e-42 0.017427549 6.638e-42 0.03315377
-0.01695185 -0.015111421 0.039852332 0.034050852 1.2544e-41 -0.05996766 0.047531027 -0.041966487
-1.2938e-41 9.714e-42 -8.296e-42 -1.282e-41 0.087525114 -7.819e-42 9.319e-42 0.0804123
-1.2778e-41 -0.025331516 0.036039326 -5.363e-42 0.0759504 -6.464e-42 -0.03564639 8.405e-42
-0.018131644 -0.019546766 -0.069075726 8.457e-42 7.951e-42 0.0015561515 0.059459683 0.00023834918
0.05047697 -0.053434983 0.05590922 -0.04093307 -0.06357745 -9.65e-42 1.0141e-41 -0.033509824
-0.036635254 -0.03531253 0.07744131 0.078468606 -0.028191743 -0.06254887 1.2952e-41 0.05107614
-1.1255e-41 -0.03654817 0.043525625 0.10130963 -0.023832394 -0.026130585 -5.204e-42 0.07290408
-0.015232916 0.09443898 -7.616e-42 8.803e-42 9.033e-42 -8.576e-42 -0.034013554 1.227e-41
-1.2277e-41 -0.036184657 1.1363e-41 0.09262533 0.0209888 1.0504e-41 0.062387776 7.141e-42
-0.009704259 8.343e-42 -0.027136473 -0.017602097 -0.06723107 1.2326e-41 -1.1627e-41 -0.010167202
0.05704872 -0.003216136 0.046285417 -0.062149223 0.07744007 -0.037663355 -0.038709585 7.086e-42
-9.995e-42 -0.031959552 -0.016401509 -0.005522685 0.05189946 0.053809304 -0.043226425 -0.0493396
6.086e-42 0.01695706 1.314e-42 -0.03478761 0.071493134 0.0815312 -0.024530722 -0.00577448
-6.722e-42 0.064003795 -0.012047105 0.08043407 1.3614e-41 9.386e-42 -1.3733e-41 -7.626e-42
-0.01993253 1.2661e-41 -8.731e-42 -0.033878736 4.32e-42 0.07929675 0.010159127 1.2672e-41
-0.051690716 7.986e-42 0.031927135 1.1436e-41 0.022589577 0.05685279 0.09708696 -7.734e-42
6.261e-42 0.016981116 -0.033705287 -0.01444666 0.0011040512 0.08815076 -0.011381238 0.09197682
0.09091985 1.2104e-41 -1.2239e-41 0.09392811 0.04681678 0.04619241 -0.0675593 -0.018212404
0.064083315 0.05295096 -8.046e-42 0.025339993 9.822e-42 0.071692854 -0.01657322 -0.03865456
0.014873698 0.051721536 1.846e-42 -0.07717133 0.07564795 -0.042500727 7.802e-42 1.3203e-41
-9.376e-42 8.531e-42 0.07748256 -1.1973e-41 -9.991e-42 0.10914956 -1.3415e-41 -0.031273812
0.0057200296 -6.108e-42 -0.03516799 -1.687e-42 0.040430248 6.557e-42 0.027203782 0.023504645
0.06785048 2.82e-42 1.0766e-41 0.010433138 -0.03564779 -0.010976765 -0.005203078 0.045278616
-0.0038699876 0.079106785 0.07207975 -7.752e-42 9.714e-42 0.08137476 0.060227364 0.02686991
-0.048181653 -0.01859929 0.08291979 0.055574834 1.177e-42 0.023982016 2.122e-42 0.09583823
-0.01737286 0.0010812622 0.06237625 0.021663247 5.255e-42 -0.052747395 0.054456346 -0.048860267
9.271e-42 1.3615e-41 8.776e-42 1.2252e-41 0.07536435 8.83e-42 1.128e-41 0.0466032
-3.593e-42 -0.02443484 0.05422643 2.723e-42 0.061281923 8.715e-42 -0.015061257 1.3542e-41

layers.3.bias f4 [50]
00000000: f8ff c13c 192d b33d cd3c a33d 37d8 3c3c
00000010: e95c 683c 815b 9d3d b1ad c43c cfdf a43d
00000020: 1e1b 943c 7a5a 603d 24bd 973d 00f1 203d
00000030: 8c16 613d dc7b 9d3c 2389 a43d 8026 4d3d
00000040: 59e7 8e3d 1a48 8c3d e99d 613d 7b7c 8b3d
00000050: baa9 3c3d cdd5 533c fefe ca3c 2ffe fa3c
00000060: ac4f 0a3d b7aa 863d ff2d 843d 6df1 663d
00000070: 4726 a13d 657d 953d e48c 6e3d c7b3 a53c
00000080: 9df7 843c d0da 3e3c ffa2 8c3d a0f6 6c3c
00000090: 5d6c 8d3c d5c0 803c 9b30 953d 92af 863d
000000a0: 7609 013d d14a 9b3c 5dc5 613c aef9 fa3c
000000b0: 0699 5f3d 0698 073d ae0d 3a3d 42ad 223d
000000c0: 3fac aa3d 5a0d 8f3d
0.023681626 0.08748836 0.07970581 0.011526159 0.014182308 0.076834686 0.024008604 0.080505006
0.018079337 0.054773785 0.074091226 0.039292336 0.054953143 0.0192241 0.08033969 0.050085545
0.0697772 0.0684969 0.055082235 0.06810852 0.0460603 0.012929392 0.024779793 0.030638782
0.033767387 0.0657553 0.064540856 0.056382585 0.07868629 0.07299308 0.058239833 0.020227326
0.016231352 0.011648849 0.068670265 0.014463097 0.017263586 0.01571695 0.072846614 0.06576456
0.031503163 0.018956574 0.013779965 0.030636635 0.054589294 0.033103965 0.045423202 0.039716013
0.083336346 0.069849685

layers.6.weight f4 [50, 50]
00000000: c1bd dabc 3bf3 843d 2a6e 713d ebfe 07bd
00000010: 0850 bbbc 56f3 663d ac68 2abc 09bb 823d
00000020: e7ed acbc 4b41 653d 7a43 523d 0a8f 81bc
00000030: 09b3 253d ea88 c8bc c208 7a3d aa9c 0c3d
00000040: ca61 693d 03b6 493d 5054 2f3d e621 523d
00000050: 0751 ef3c 0cd8 cbbc 4298 c0bc 6730 c2bc
00000060: f786 98bc f2c5 3e3d 94e3 893d 8f80 3d3d
00000070: b21f 763d be62 6a3d fbe2 2e3d 7a84 5cbc
00000080: 81b0 62bc 9956 99bc 48b8 8c3d 7081 d3bc
00000090: e6a3 89bc 131d aebc 4d1a 593d c90a 443d
000000a0: 4735 0bbc fbab 30bc e434 9cbc efb3 babc
000000b0: 9889 913c 312b 62bc 9fd6 1abd ffd5 90bc
000000c0: 8e42 903d d2bb 5d3d 3489 87bc 19e7 313d
000000d0: 71a2 243d 86ea 5cbc 071e 59bc 5366 2a3d
000000e0: 94af b2bb abff 323d e3b6 3cbc 6123 113d
000000f0: aeec 223d 5a33 3abc 42f0 f53c 115b 05bc
00000100: b628 283d e897 f83c 63de 2f3d eed8 023d
00000110: ae7f fc3c 90d1 173d 2278 a53c 8199 67bc
00000120: e781 61bc ed98 30bc e081 4abc 2970 283d
00000130: c3d9 323d c52d 043d 6e2f 3d3d 8d8f 283d
00000140: e2ef 043d d15e 08bc 522d fabb 67ba 1bbc
00000150: 052d 3b3d 9a65 7abc a68f 2cbc 6015 3bbc
00000160: 703c 263d f434 163d 959d 89bb 0406 87bb
00000170: c02b 3cbc 6a5c 71bc 207d 883c 45fc 1ebc
00000180: 5747 9fbc c070 9abb dca3 3e3d cfab 203d
00000190: 4a0f b4bc 4dd6 7e3d 5d78 5b3d f2ec d6bc
000001a0: 47f6 a3bc 3e25 683d 100f 22bc 0e10 7b3d
000001b0: 3192 8ebc cd02 493d 5d91 5b3d 9798 64bc
000001c0: adf2 223d 16f7 89bc 71fb 793d 75bc 1a3d
000001d0: a8b9 803d a89a 433d f92a 403d 454c 4a3d
000001e0: 6a0b e43c aba9 c2bc 657e 98bc 8523 a4bc
000001f0: 8b17 87bc 2497 633d c02f 7d3d 4484 3c3d
00000200: 9f96 833d 38b9 763d 9404 363d 5a6e 81bc
00000210: d136 2abc d435 94bc 5676 823d c610 adbc
00000220: fa7f 49bc 4d12 5dbc c832 653d ddcd 533d
00000230: 84ab d9bb 20e7 2cbc 878c 81bc 4d43 cabc
00000240: fc79 ad3c e625 59bc ce53 fdbc e3c7 86bc
00000250: 8e25 923d 73c2 5f3d 1dca 7c3d da9c 6abc
00000260: 33a1 72bc 3dc6 853d c47a 7e3d f040 85bc
00000270: a847 573d a3f0 9cbc 6d86 8a3d f2df 22bc
00000280: e519 72bc ef96 8b3d 14a2 32bc bbdb 5f3d
00000290: 14af 76bc 7ebf 9dbb b2cd 62bc ac2d 0ebc
000002a0: aeec 42bc 266f 55bc a6f7 f53b a0c2 8a3d
000002b0: 7caa 7b3d 3832 863d a71f 5f3d 9ae3 80bc
000002c0: 64d0 86bc 5192 68bc 2062 55bc 0170 8dbc
000002d0: c6fc 08bc de19 413d ccca 443d bd07 743d
000002e0: 0e8e 89bc 5847 733d 4196 5e3d 20cf 813d
000002f0: 524b 40bc 398a 54bc 8cc5 243d 5456 173d
00000300: 8593 663d 4c0e 803d b3d6 b13c cb58 313d
00000310: b59c a83d e73f 753d 4b79 c1bc e821 afbb
00000320: dbfa 7abc 1e46 3c3d f58d 2b3d e310 98bc
00000330: c5db 4fbc b05d 253d 27f8 ebbb 32c5 393d
00000340: c5ba 33bc cb23 1a3d 8a2b 263d f23f 6ebc
00000350: 6009 0f3d 059c 38bc 1d07 3c3d eeeb 013d
00000360: 84f0 453d d9de 183d cae4 083d a0dc 253d
00000370: 0975 c53c 190f 7cbc 797b 13bc a7b4 6ebc
00000380: d16d 07bc 8c96 283d 78c5 3f3d 036d 153d
00000390: e179 3c3d a3f5 2a3d 5883 103d fa18 29bc
000003a0: 646b 18bc a31b 30bc 44bb 543d e6f8 8cbc
000003b0: 1ebf 14bc 538b 2ebc 1c4b 243d 58d9 1b3d
000003c0: 2a5a 8bbb a8e4 bfbb 3f62 46bc 624a 72bc
000003d0: 8c8b 903c 6694 02bc d3d8 9cbc 2bb9 36bc
000003e0: eef3 563d 517d 153d 1945 b2bc 0949 6b3d
000003f0: 9fbe 4d3d b45c cbbc 4b99 a8bc 869a 3d3d
-0.02670181 0.06491705 0.05894295 -0.033202093 -0.02286531 0.056384407 -0.010400932 0.063833304
-0.021109534 0.05597047 0.051333882 -0.015815277 0.040453944 -0.024479348 0.06104351 0.034329094
0.056978025 0.049245846 0.042805016 0.05130186 0.029213442 -0.024883293 -0.023510102 -0.02370472
-0.018619044 0.046575494 0.0673286 0.04626518 0.06008882 0.057223074 0.042696934 -0.013459319
-0.013836027 -0.01871805 0.06871086 -0.025818557 -0.016801786 -0.021254098 0.053003598 0.047861848
-0.008496589 -0.010783191 -0.019068189 -0.022790877 0.017765805 -0.013804243 -0.037802335 -0.017680166
0.07043944 0.054134198 -0.016544916 0.043433283 0.04019398 -0.013483649 -0.013251788 0.04160149
-0.0054530594 0.043700855 -0.011518213 0.03543413 0.039776497 -0.011364782 0.03002179 -0.008139388
0.04105445 0.030345872 0.042936694 0.03194516 0.030822601 0.03706509 0.020198885 -0.014135719
-0.013763881 -0.010778648 -0.012360066 0.04112259 0.043664705 0.03227021 0.04618781 0.041152526
0.032455333 -0.008323387 -0.007634797 -0.009504891 0.04569723 -0.015283013 -0.010532295 -0.01141867
0.04058498 0.036671594 -0.0041996934 -0.00412059 -0.01148504 -0.014731506 0.016661227 -0.0097037
-0.019443197 -0.004713148 0.046542987 0.03922635 -0.021979947 0.062216092 0.053581584 -0.026236031
-0.020014895 0.056676142 -0.0098912865 0.061294608 -0.017403694 0.049074937 0.053605426 -0.013952396
0.039782215 -0.016841453 0.06103081 0.037777383 0.06285411 0.047754914 0.046915982 0.049389143
0.027837474 -0.023762545 -0.018614957 -0.020036468 -0.016490718 0.05556406 0.061813116 0.046024576
0.06425213 0.060235232 0.04443796 -0.01579969 -0.010389046 -0.018092074 0.06370227 -0.021126162
-0.012298578 -0.013493133 0.055956632 0.05171 -0.0066427607 -0.010553151 -0.015814079 -0.024690295
0.02117633 -0.013253665 -0.03092375 -0.016452735 0.07136069 0.0546288 0.061716188 -0.014319623
-0.014808941 0.065319516 0.062128797 -0.016266316 0.05255857 -0.019157713 0.06763921 -0.009941088
-0.014776682 0.06815898 -0.0109029 0.05465291 -0.01505639 -0.0048140874 -0.013842987 -0.008677881
-0.011897249 -0.013026988 0.0075063286 0.06775403 0.061441883 0.06552547 0.054473545 -0.015733529
-0.01645679 -0.014195041 -0.013023883 -0.017265322 -0.008361047 0.04714381 0.048044965 0.059577692
-0.01679137 0.05939421 0.054342512 0.06338334 -0.011736708 -0.012972408 0.040227458 0.036947563
0.05629303 0.06252727 0.021708822 0.04329757 0.082330145 0.059875395 -0.023617407 -0.005344618
-0.015318598 0.045965306 0.041883428 -0.01856274 -0.0126866745 0.04037255 -0.007201213 0.045354076
-0.010969822 0.03763179 0.040568866 -0.014541613 0.03492105 -0.011267667 0.04590522 0.03171914
0.048325077 0.0373219 0.033421315 0.040493608 0.024103658 -0.015384459 -0.009001606 -0.014569438
-0.008265928 0.041159198 0.04681918 0.036480915 0.04601467 0.041738164 0.03528151 -0.010320896
-0.009302948 -0.010748777 0.051936403 -0.017208528 -0.009078769 -0.010653335 0.040110692 0.038049072
-0.0042526918 -0.0058561154 -0.012108385 -0.014788242 0.017644666 -0.007969951 -0.019146359 -0.011152546
0.052478723 0.036496464 -0.021761464 0.0574427 0.05023062 -0.024824478 -0.020580908 0.046289943

layers.6.bias f4 [50]
00000000: ebb4 b93d 8610 683d bcf8 aa3d 873c 343d
00000010: 5766 763d 86a5 a13d c7ae 133d 1927 9e3d
00000020: 8020 aa3d 230d 823d 4fe0 753d 3424 353d
00000030: 56b3 ee3c 367e 183d 8af2 823d 3cfe 973d
00000040: 7459 943d 40ba 1c3d e147 a23d 4c45 2f3d
00000050: 6b1a 203d 78c9 4a3d 3771 0a3d 54ea 973d
00000060: fa31 db3c ecff 923d 698d 2e3d a1a2 403d
00000070: 65ea 0c3d 20da 8a3d c3e1 aa3d a30c 973d
00000080: 2909 233d eabc a13d 22f7 7d3d 9ba5 ad3d
00000090: b6e9 213d 2d86 a23d d906 3c3d 87fc 2b3d
000000a0: 54f1 973d 9138 9a3d 07b6 8d3d 0e4c 803d
000000b0: 6362 0e3d b5d9 043d ed87 2b3d 814f 913d
000000c0: 416e 0d3d 2096 953d
0.090677105 0.056656383 0.083482236 0.044003036 0.060156193 0.07892899 0.036055353 0.07722301
0.0830698 0.06350162 0.06002837 0.04422398 0.029138248 0.03722974 0.06393917 0.07421538
0.07243624 0.03826356 0.07923866 0.042790696 0.039087694 0.04950854 0.033799376 0.074177414
0.02675723 0.071777195 0.042615328 0.047030095 0.034403224 0.06779885 0.08343842 0.07375457
0.039803658 0.078973606 0.062003262 0.08478852 0.039529525 0.07935748 0.045904968 0.041988876
0.074190766 0.075303204 0.069194846 0.06264506 0.034761798 0.032434184 0.041877676 0.07095242
0.034528974 0.07304025

classifier.0.weight f4 [2, 50]
00000000: 7b97 51be 3ed4 0abe f106 52be 3260 593e
00000010: e491 15be eb8a 4cbe fa4d 773e 8adf 3bbe
00000020: 5fa5 52be b28e 22be b747 18be bd67 6c3e
00000030: d11f 2c3e 7041 4a3e 6abf 17be d7dd 38be
00000040: bda4 35be bdb8 683e cc6e 56be f2c6 473e
00000050: 66fd 4e3e d0b4 783e 4244 3f3e 3a4b 3fbe
00000060: 5b82 1a3e ca58 3abe b82b 4c3e 2887 eabd
00000070: 760b 313e 060a 26be ab7c 42be 1843 36be
00000080: be66 5b3e b426 4dbe a45d 15be ec54 5cbe
00000090: 24fb 813e 73df 49be b5ce 793e 8983 623e
000000a0: 6220 4dbe 087e 47be e083 37be e27b 25be
000000b0: 6067 2c3e 913a 213e 6428 503e e3b8 31be
000000c0: 7fb3 4b3e fa74 3fbe b78b 5c3e 4772 153e
000000d0: 5acb 4d3e 705b 52be e160 1c3e 785b 3e3e
000000e0: d8e9 76be c3f9 433e fef4 5d3e 3db9 233e
000000f0: ff7e 163e f498 6ebe 09d6 1ebe b3cf 47be
00000100: 7451 243e 193c 3e3e 6ca2 3a3e 09e6 52be
00000110: 0e97 5c3e 28e5 58be 16c5 40be 3bfd 6fbe
00000120: cec4 3abe 2059 363e 4fb2 21be c3de 2f3e
00000130: 8db1 68be a63d e73d d0b8 31be c0b8 223e
00000140: 7940 543e ab19 303e 1c50 6ebe 771d 473e
00000150: 60dd 1b3e 31b1 613e b663 71be eaff 473e
00000160: 0263 80be 042d 58be 6724 353e 5619 3a3e
00000170: fda9 273e 09ba 193e 5f31 37be 4954 1cbe
00000180: 0771 56be 0841 403e 9944 53be 4456 423e
-0.20467941 -0.13557526 -0.2051046 0.21228102 -0.14606434 -0.19974868 0.2415084 -0.18346992
-0.20570897 -0.15874746 -0.14871107 0.23086448 0.16809012 0.19751525 -0.14819112 -0.18053375
-0.17738624 0.22726722 -0.20940703 0.19509485 0.20213851 0.24287724 0.18678382 -0.1868104
0.15088789 -0.18197933 0.19938552 -0.1145156 0.17289528 -0.16214761 -0.1899287 -0.17799032
0.21425912 -0.20034295 -0.14586502 -0.2151677 0.25386918 -0.19714145 0.24395259 0.22120489
-0.20031884 -0.19481671 -0.179214 -0.16160539 0.1683631 0.15744998 0.20327908 -0.17355685
0.19892691 -0.18696967 0.21537672 0.14594375 0.20097104 -0.20542693 0.15271331 0.1858958
-0.24112642 0.19138245 0.21675488 0.15988632 0.14696883 -0.23300534 -0.15511335 -0.19512825
0.16046697 0.18577613 0.18226022 -0.20595564 0.21541998 -0.21181166 -0.18825182 -0.23436444
-0.18239138 0.17807436 -0.15790676 0.1717482 -0.2272398 0.112910554 -0.17355657 0.15890789
0.2072772 0.17197292 -0.23272747 0.19444834 0.15221167 0.2204025 -0.23573193 0.19531217
-0.25075537 -0.21110922 0.17689668 0.18173727 0.16373439 0.15012373 -0.17889927 -0.15266527
-0.20941554 0.18774807 -0.20631637 0.1897822

classifier.0.bias f4 [2]
00000000: d419 10bd d184 0c3d
-0.03518088 0.03430635
